…
use_cuda:	False
model:	seq2seq
max_time_step:	50
pool_size:	0
max_split:	0
refF:	
beam_size:	10
unk:	True
batch_size:	64
data:	/home/linjunyang/data/lcsts/data/
hops:	1
cell:	lstm
num_processes:	4
bidirectional:	True
mode:	train
epoch:	20
shared_vocab:	True
selfatt:	True
eval_interval:	10000
save_interval:	3000
emb_size:	512
dropout:	0.0
start_decay_at:	6
hidden_size:	512
dec_num_layers:	2
attention:	luong_gate
char:	False
schesamp:	False
gpus:	[0]
seed:	1234
pretrain:	
split_num:	0
config:	lcsts.yaml
learning_rate:	0.0003
restore:	
log:	standard

seq2seq(
  (encoder): rnn_encoder(
    (embedding): Embedding(4005, 512)
    (dropout): Dropout(p=0.02)
    (sw1): Sequential(
      (0): Conv1d(512, 512, kernel_size=(1,), stride=(1,))
      (1): BatchNorm1d(512, eps=1e-05, momentum=0.1, affine=True)
      (2): ReLU()
    )
    (sw3): Sequential(
      (0): Conv1d(512, 512, kernel_size=(1,), stride=(1,))
      (1): ReLU()
      (2): BatchNorm1d(512, eps=1e-05, momentum=0.1, affine=True)
      (3): Conv1d(512, 512, kernel_size=(3,), stride=(1,), padding=(1,))
      (4): ReLU()
      (5): BatchNorm1d(512, eps=1e-05, momentum=0.1, affine=True)
    )
    (sw33): Sequential(
      (0): Conv1d(512, 512, kernel_size=(1,), stride=(1,))
      (1): ReLU()
      (2): BatchNorm1d(512, eps=1e-05, momentum=0.1, affine=True)
      (3): Conv1d(512, 512, kernel_size=(3,), stride=(1,), padding=(1,))
      (4): ReLU()
      (5): BatchNorm1d(512, eps=1e-05, momentum=0.1, affine=True)
      (6): Conv1d(512, 512, kernel_size=(3,), stride=(1,), padding=(1,))
      (7): ReLU()
      (8): BatchNorm1d(512, eps=1e-05, momentum=0.1, affine=True)
    )
    (swish): Conv1d(512, 512, kernel_size=(5,), stride=(1,), padding=(2,))
    (linear): Sequential(
      (0): Linear(in_features=1024, out_features=1024, bias=True)
      (1): GLU(dim=-1)
      (2): Dropout(p=0.0)
    )
    (filter_linear): Linear(in_features=1536, out_features=512, bias=True)
    (tanh): Tanh()
    (sigmoid): Sigmoid()
    (PosEnc): PositionalEncoding(
      (dropout): Dropout(p=0.0)
    )
    (attention): luong_gate_attention(
      (linear_in): Sequential(
        (0): Linear(in_features=512, out_features=512, bias=True)
        (1): Dropout(p=0.1)
      )
      (linear_out): Sequential(
        (0): Linear(in_features=1024, out_features=512, bias=True)
        (1): SELU
        (2): Dropout(p=0.1)
        (3): Linear(in_features=512, out_features=512, bias=True)
        (4): SELU
        (5): Dropout(p=0.1)
      )
      (softmax): Softmax()
      (selu): SELU
    )
    (rnn): LSTM(512, 512, num_layers=2, bidirectional=True)
  )
  (decoder): rnn_decoder(
    (embedding): Embedding(4005, 512)
    (rnn): StackedLSTM(
      (dropout): Dropout(p=0.0)
      (layers): ModuleList(
        (0): LSTMCell(512, 512)
        (1): LSTMCell(512, 512)
      )
    )
    (linear): Linear(in_features=512, out_features=4001, bias=True)
    (linear_): Linear(in_features=512, out_features=512, bias=True)
    (sigmoid): Sigmoid()
    (attention): luong_gate_attention(
      (linear_in): Sequential(
        (0): Linear(in_features=512, out_features=512, bias=True)
        (1): Dropout(p=0.1)
      )
      (linear_out): Sequential(
        (0): Linear(in_features=1024, out_features=512, bias=True)
        (1): SELU
        (2): Dropout(p=0.1)
        (3): Linear(in_features=512, out_features=512, bias=True)
        (4): SELU
        (5): Dropout(p=0.1)
      )
      (softmax): Softmax()
      (selu): SELU
    )
    (dropout): Dropout(p=0.0)
  )
  (log_softmax): LogSoftmax()
  (criterion): CrossEntropyLoss(
  )
)

total number of parameters: 27473313

selfatt:	True
src_vocab_size:	4005
pool_size:	0
optim:	adam
refF:	
schesamp:	False
unk:	True
hops:	1
save_interval:	3000
…
